
Max answerlength: 100
Vocabulary size: 1887
(9303, 100) (2326, 100)
Model: "model_15"
__________________________________________________________________________________________________
Layer (type)                    Output Shape         Param #     Connected to                     
==================================================================================================
input_43 (InputLayer)           (None, 100)          0                                            
__________________________________________________________________________________________________
input_44 (InputLayer)           (None, 100)          0                                            
__________________________________________________________________________________________________
input_45 (InputLayer)           (None, 100)          0                                            
__________________________________________________________________________________________________
embedding_43 (Embedding)        (None, 100, 50)      94350       input_43[0][0]                   
__________________________________________________________________________________________________
embedding_44 (Embedding)        (None, 100, 50)      94350       input_44[0][0]                   
__________________________________________________________________________________________________
embedding_45 (Embedding)        (None, 100, 50)      94350       input_45[0][0]                   
__________________________________________________________________________________________________
conv1d_43 (Conv1D)              (None, 99, 300)      30300       embedding_43[0][0]               
__________________________________________________________________________________________________
conv1d_44 (Conv1D)              (None, 98, 300)      45300       embedding_44[0][0]               
__________________________________________________________________________________________________
conv1d_45 (Conv1D)              (None, 97, 300)      60300       embedding_45[0][0]               
__________________________________________________________________________________________________
batch_normalization_113 (BatchN (None, 99, 300)      1200        conv1d_43[0][0]                  
__________________________________________________________________________________________________
batch_normalization_115 (BatchN (None, 98, 300)      1200        conv1d_44[0][0]                  
__________________________________________________________________________________________________
batch_normalization_117 (BatchN (None, 97, 300)      1200        conv1d_45[0][0]                  
__________________________________________________________________________________________________
dropout_113 (Dropout)           (None, 99, 300)      0           batch_normalization_113[0][0]    
__________________________________________________________________________________________________
dropout_115 (Dropout)           (None, 98, 300)      0           batch_normalization_115[0][0]    
__________________________________________________________________________________________________
dropout_117 (Dropout)           (None, 97, 300)      0           batch_normalization_117[0][0]    
__________________________________________________________________________________________________
max_pooling1d_43 (MaxPooling1D) (None, 1, 300)       0           dropout_113[0][0]                
__________________________________________________________________________________________________
max_pooling1d_44 (MaxPooling1D) (None, 1, 300)       0           dropout_115[0][0]                
__________________________________________________________________________________________________
max_pooling1d_45 (MaxPooling1D) (None, 1, 300)       0           dropout_117[0][0]                
__________________________________________________________________________________________________
batch_normalization_114 (BatchN (None, 1, 300)       1200        max_pooling1d_43[0][0]           
__________________________________________________________________________________________________
batch_normalization_116 (BatchN (None, 1, 300)       1200        max_pooling1d_44[0][0]           
__________________________________________________________________________________________________
batch_normalization_118 (BatchN (None, 1, 300)       1200        max_pooling1d_45[0][0]           
__________________________________________________________________________________________________
dropout_114 (Dropout)           (None, 1, 300)       0           batch_normalization_114[0][0]    
__________________________________________________________________________________________________
dropout_116 (Dropout)           (None, 1, 300)       0           batch_normalization_116[0][0]    
__________________________________________________________________________________________________
dropout_118 (Dropout)           (None, 1, 300)       0           batch_normalization_118[0][0]    
__________________________________________________________________________________________________
flatten_43 (Flatten)            (None, 300)          0           dropout_114[0][0]                
__________________________________________________________________________________________________
flatten_44 (Flatten)            (None, 300)          0           dropout_116[0][0]                
__________________________________________________________________________________________________
flatten_45 (Flatten)            (None, 300)          0           dropout_118[0][0]                
__________________________________________________________________________________________________
concatenate_15 (Concatenate)    (None, 900)          0           flatten_43[0][0]                 
                                                                 flatten_44[0][0]                 
                                                                 flatten_45[0][0]                 
__________________________________________________________________________________________________
dense_43 (Dense)                (None, 200)          180200      concatenate_15[0][0]             
__________________________________________________________________________________________________
batch_normalization_119 (BatchN (None, 200)          800         dense_43[0][0]                   
__________________________________________________________________________________________________
dropout_119 (Dropout)           (None, 200)          0           batch_normalization_119[0][0]    
__________________________________________________________________________________________________
dense_44 (Dense)                (None, 100)          20100       dropout_119[0][0]                
__________________________________________________________________________________________________
batch_normalization_120 (BatchN (None, 100)          400         dense_44[0][0]                   
__________________________________________________________________________________________________
dropout_120 (Dropout)           (None, 100)          0           batch_normalization_120[0][0]    
__________________________________________________________________________________________________
dense_45 (Dense)                (None, 1)            101         dropout_120[0][0]                
==================================================================================================
Total params: 627,751
Trainable params: 623,551
Non-trainable params: 4,200
__________________________________________________________________________________________________
None
Train on 9303 samples, validate on 2326 samples
Epoch 1/350
9303/9303 [==============================] - 8s 841us/step - loss: 1.0449 - correlation_coefficient: 0.0713 - val_loss: 1.4250 - val_correlation_coefficient: 0.0500
…
